…
efused
Unable to init server: Could not connect: Connection refused

(model_trainer.py:429726): Gdk-CRITICAL **: 17:52:54.293: gdk_cursor_new_for_display: assertion 'GDK_IS_DISPLAY (display)' failed
Epochs:  100000
Pretrained:  False
SAM:  False
Adversarial Training Type:  None
Files already downloaded and verified
Files already downloaded and verified
CIFAR10 Data Loaded
----------------------------------------------------------------
        Layer (type)               Output Shape         Param #
================================================================
            Conv2d-1           [-1, 48, 32, 32]           1,296
       BatchNorm2d-2           [-1, 48, 32, 32]              96
             ReLU6-3           [-1, 48, 32, 32]               0
            Conv2d-4           [-1, 48, 32, 32]             432
       BatchNorm2d-5           [-1, 48, 32, 32]              96
             ReLU6-6           [-1, 48, 32, 32]               0
            Conv2d-7           [-1, 24, 32, 32]           1,152
       BatchNorm2d-8           [-1, 24, 32, 32]              48
  InvertedResidual-9           [-1, 24, 32, 32]               0
           Conv2d-10          [-1, 144, 32, 32]           3,456
      BatchNorm2d-11          [-1, 144, 32, 32]             288
            ReLU6-12          [-1, 144, 32, 32]               0
           Conv2d-13          [-1, 144, 32, 32]           1,296
      BatchNorm2d-14          [-1, 144, 32, 32]             288
            ReLU6-15          [-1, 144, 32, 32]               0
           Conv2d-16           [-1, 32, 32, 32]           4,608
      BatchNorm2d-17           [-1, 32, 32, 32]              64
 InvertedResidual-18           [-1, 32, 32, 32]               0
           Conv2d-19          [-1, 192, 32, 32]           6,144
      BatchNorm2d-20          [-1, 192, 32, 32]             384
            ReLU6-21          [-1, 192, 32, 32]               0
           Conv2d-22          [-1, 192, 32, 32]           1,728
      BatchNorm2d-23          [-1, 192, 32, 32]             384
            ReLU6-24          [-1, 192, 32, 32]               0
           Conv2d-25           [-1, 32, 32, 32]           6,144
      BatchNorm2d-26           [-1, 32, 32, 32]              64
 InvertedResidual-27           [-1, 32, 32, 32]               0
           Conv2d-28          [-1, 192, 32, 32]           6,144
      BatchNorm2d-29          [-1, 192, 32, 32]             384
            ReLU6-30          [-1, 192, 32, 32]               0
           Conv2d-31          [-1, 192, 16, 16]           1,728
      BatchNorm2d-32          [-1, 192, 16, 16]             384
            ReLU6-33          [-1, 192, 16, 16]               0
           Conv2d-34           [-1, 48, 16, 16]           9,216
      BatchNorm2d-35           [-1, 48, 16, 16]              96
 InvertedResidual-36           [-1, 48, 16, 16]               0
           Conv2d-37          [-1, 288, 16, 16]          13,824
      BatchNorm2d-38          [-1, 288, 16, 16]             576
            ReLU6-39          [-1, 288, 16, 16]               0
           Conv2d-40          [-1, 288, 16, 16]           2,592
      BatchNorm2d-41          [-1, 288, 16, 16]             576
            ReLU6-42          [-1, 288, 16, 16]               0
           Conv2d-43           [-1, 48, 16, 16]          13,824
      BatchNorm2d-44           [-1, 48, 16, 16]              96
 InvertedResidual-45           [-1, 48, 16, 16]               0
           Conv2d-46          [-1, 288, 16, 16]          13,824
      BatchNorm2d-47          [-1, 288, 16, 16]             576
            ReLU6-48          [-1, 288, 16, 16]               0
           Conv2d-49          [-1, 288, 16, 16]           2,592
      BatchNorm2d-50          [-1, 288, 16, 16]             576
            ReLU6-51          [-1, 288, 16, 16]               0
           Conv2d-52           [-1, 48, 16, 16]          13,824
      BatchNorm2d-53           [-1, 48, 16, 16]              96
 InvertedResidual-54           [-1, 48, 16, 16]               0
           Conv2d-55          [-1, 288, 16, 16]          13,824
      BatchNorm2d-56          [-1, 288, 16, 16]             576
            ReLU6-57          [-1, 288, 16, 16]               0
           Conv2d-58            [-1, 288, 8, 8]           2,592
      BatchNorm2d-59            [-1, 288, 8, 8]             576
            ReLU6-60            [-1, 288, 8, 8]               0
           Conv2d-61             [-1, 88, 8, 8]          25,344
      BatchNorm2d-62             [-1, 88, 8, 8]             176
 InvertedResidual-63             [-1, 88, 8, 8]               0
           Conv2d-64            [-1, 528, 8, 8]          46,464
      BatchNorm2d-65            [-1, 528, 8, 8]           1,056
            ReLU6-66            [-1, 528, 8, 8]               0
           Conv2d-67            [-1, 528, 8, 8]           4,752
      BatchNorm2d-68            [-1, 528, 8, 8]           1,056
            ReLU6-69            [-1, 528, 8, 8]               0
           Conv2d-70             [-1, 88, 8, 8]          46,464
      BatchNorm2d-71             [-1, 88, 8, 8]             176
 InvertedResidual-72             [-1, 88, 8, 8]               0
           Conv2d-73            [-1, 528, 8, 8]          46,464
      BatchNorm2d-74            [-1, 528, 8, 8]           1,056
            ReLU6-75            [-1, 528, 8, 8]               0
           Conv2d-76            [-1, 528, 8, 8]           4,752
      BatchNorm2d-77            [-1, 528, 8, 8]           1,056
            ReLU6-78            [-1, 528, 8, 8]               0
           Conv2d-79             [-1, 88, 8, 8]          46,464
      BatchNorm2d-80             [-1, 88, 8, 8]             176
 InvertedResidual-81             [-1, 88, 8, 8]               0
           Conv2d-82            [-1, 528, 8, 8]          46,464
      BatchNorm2d-83            [-1, 528, 8, 8]           1,056
            ReLU6-84            [-1, 528, 8, 8]               0
           Conv2d-85            [-1, 528, 8, 8]           4,752
      BatchNorm2d-86            [-1, 528, 8, 8]           1,056
            ReLU6-87            [-1, 528, 8, 8]               0
           Conv2d-88             [-1, 88, 8, 8]          46,464
      BatchNorm2d-89             [-1, 88, 8, 8]             176
 InvertedResidual-90             [-1, 88, 8, 8]               0
           Conv2d-91            [-1, 528, 8, 8]          46,464
      BatchNorm2d-92            [-1, 528, 8, 8]           1,056
            ReLU6-93            [-1, 528, 8, 8]               0
           Conv2d-94            [-1, 528, 8, 8]           4,752
      BatchNorm2d-95            [-1, 528, 8, 8]           1,056
            ReLU6-96            [-1, 528, 8, 8]               0
           Conv2d-97            [-1, 136, 8, 8]          71,808
      BatchNorm2d-98            [-1, 136, 8, 8]             272
 InvertedResidual-99            [-1, 136, 8, 8]               0
          Conv2d-100            [-1, 816, 8, 8]         110,976
     BatchNorm2d-101            [-1, 816, 8, 8]           1,632
           ReLU6-102            [-1, 816, 8, 8]               0
          Conv2d-103            [-1, 816, 8, 8]           7,344
     BatchNorm2d-104            [-1, 816, 8, 8]           1,632
           ReLU6-105            [-1, 816, 8, 8]               0
          Conv2d-106            [-1, 136, 8, 8]         110,976
     BatchNorm2d-107            [-1, 136, 8, 8]             272
InvertedResidual-108            [-1, 136, 8, 8]               0
          Conv2d-109            [-1, 816, 8, 8]         110,976
     BatchNorm2d-110            [-1, 816, 8, 8]           1,632
           ReLU6-111            [-1, 816, 8, 8]               0
          Conv2d-112            [-1, 816, 8, 8]           7,344
     BatchNorm2d-113            [-1, 816, 8, 8]           1,632
           ReLU6-114            [-1, 816, 8, 8]               0
          Conv2d-115            [-1, 136, 8, 8]         110,976
     BatchNorm2d-116            [-1, 136, 8, 8]             272
InvertedResidual-117            [-1, 136, 8, 8]               0
          Conv2d-118            [-1, 816, 8, 8]         110,976
     BatchNorm2d-119            [-1, 816, 8, 8]           1,632
           ReLU6-120            [-1, 816, 8, 8]               0
          Conv2d-121            [-1, 816, 4, 4]           7,344
     BatchNorm2d-122            [-1, 816, 4, 4]           1,632
           ReLU6-123            [-1, 816, 4, 4]               0
          Conv2d-124            [-1, 224, 4, 4]         182,784
     BatchNorm2d-125            [-1, 224, 4, 4]             448
InvertedResidual-126            [-1, 224, 4, 4]               0
          Conv2d-127           [-1, 1344, 4, 4]         301,056
     BatchNorm2d-128           [-1, 1344, 4, 4]           2,688
           ReLU6-129           [-1, 1344, 4, 4]               0
          Conv2d-130           [-1, 1344, 4, 4]          12,096
     BatchNorm2d-131           [-1, 1344, 4, 4]           2,688
           ReLU6-132           [-1, 1344, 4, 4]               0
          Conv2d-133            [-1, 224, 4, 4]         301,056
     BatchNorm2d-134            [-1, 224, 4, 4]             448
InvertedResidual-135            [-1, 224, 4, 4]               0
          Conv2d-136           [-1, 1344, 4, 4]         301,056
     BatchNorm2d-137           [-1, 1344, 4, 4]           2,688
           ReLU6-138           [-1, 1344, 4, 4]               0
          Conv2d-139           [-1, 1344, 4, 4]          12,096
     BatchNorm2d-140           [-1, 1344, 4, 4]           2,688
           ReLU6-141           [-1, 1344, 4, 4]               0
          Conv2d-142            [-1, 224, 4, 4]         301,056
     BatchNorm2d-143            [-1, 224, 4, 4]             448
InvertedResidual-144            [-1, 224, 4, 4]               0
          Conv2d-145           [-1, 1344, 4, 4]         301,056
     BatchNorm2d-146           [-1, 1344, 4, 4]           2,688
           ReLU6-147           [-1, 1344, 4, 4]               0
          Conv2d-148           [-1, 1344, 4, 4]          12,096
     BatchNorm2d-149           [-1, 1344, 4, 4]           2,688
           ReLU6-150           [-1, 1344, 4, 4]               0
          Conv2d-151            [-1, 448, 4, 4]         602,112
     BatchNorm2d-152            [-1, 448, 4, 4]             896
InvertedResidual-153            [-1, 448, 4, 4]               0
          Conv2d-154           [-1, 1792, 4, 4]         802,816
     BatchNorm2d-155           [-1, 1792, 4, 4]           3,584
           ReLU6-156           [-1, 1792, 4, 4]               0
         Dropout-157                 [-1, 1792]               0
          Linear-158                   [-1, 10]          17,930
     MobileNetV2-159                   [-1, 10]               0
================================================================
Total params: 4,333,706
Trainable params: 4,333,706
Non-trainable params: 0
----------------------------------------------------------------
Input size (MB): 0.01
Forward/backward pass size (MB): 53.00
Params size (MB): 16.53
Estimated Total Size (MB): 69.54
----------------------------------------------------------------
cifar10_mobilenetv2_x1_4 Network Loaded
…
